…
_batch_size': 128, 'num_workers': 0, 'num_training_steps': 1000000, 'lr': 0.0005, 'lr_decay_every': 100000, 'test_batch_size': 32, 'num_testing_steps': 100, 'test_every': 1000, 'log_gradients': False, 'f': None}		(File "main.py", line 664, in print_cmd_line_and_save_args)
[2025-04-08 17:15:37] INFO     Model:
EnergyModel(
  (network): DataParallel(
    (module): Reparameterization(
      expr="<y, f(y)> / 2"
      (network): UNet(
        (noise_var_embedding): NoiseVarEmbedding(
          fourier_dim=64, time_embed_dim=256, t_min=1, t_max=100
          (time_embed): Sequential(
            (0): Linear(in_features=64, out_features=256, bias=True)
            (1): SiLU()
            (2): Linear(in_features=256, out_features=256, bias=True)
            (3): SiLU()
          )
        )
        (encoder): ModuleList(
          (0): ConditionalSequential(
            (0): Conv2d(1, 64, kernel_size=(3, 3), stride=(1, 1), padding=(1, 1), bias=False)
            (1): Normalization(
              num_channels=64=64 groups of size 1, conditioning_channels=256, homogeneous=True, learnable_weight=True, learnable_bias=False, center=True, normalize_by=stddev, preserve_scale=True, use_statistics=input
              (conditioning_embedding): Linear(in_features=256, out_features=64, bias=True)
            )
            (2): GELU(approximate='none')
            (3): Conv2d(64, 64, kernel_size=(3, 3), stride=(1, 1), padding=(1, 1), bias=False)
            (4): Normalization(
              num_channels=64=64 groups of size 1, conditioning_channels=256, homogeneous=True, learnable_weight=True, learnable_bias=False, center=True, normalize_by=stddev, preserve_scale=True, use_statistics=input
              (conditioning_embedding): Linear(in_features=256, out_features=64, bias=True)
            )
            (5): GELU(approximate='none')
            (6): Conv2d(64, 64, kernel_size=(3, 3), stride=(1, 1), padding=(1, 1), bias=False)
            (7): Normalization(
              num_channels=64=64 groups of size 1, conditioning_channels=256, homogeneous=True, learnable_weight=True, learnable_bias=False, center=True, normalize_by=stddev, preserve_scale=True, use_statistics=input
              (conditioning_embedding): Linear(in_features=256, out_features=64, bias=True)
            )
            (8): GELU(approximate='none')
          )
          (1): ConditionalSequential(
            (0): Conv2d(64, 128, kernel_size=(2, 2), stride=(2, 2), bias=False)
            (1): Normalization(
              num_channels=128=128 groups of size 1, conditioning_channels=256, homogeneous=True, learnable_weight=True, learnable_bias=False, center=True, normalize_by=stddev, preserve_scale=True, use_statistics=input
              (conditioning_embedding): Linear(in_features=256, out_features=128, bias=True)
            )
            (2): GELU(approximate='none')
            (3): Conv2d(128, 128, kernel_size=(3, 3), stride=(1, 1), padding=(1, 1), bias=False)
            (4): Normalization(
              num_channels=128=128 groups of size 1, conditioning_channels=256, homogeneous=True, learnable_weight=True, learnable_bias=False, center=True, normalize_by=stddev, preserve_scale=True, use_statistics=input
              (conditioning_embedding): Linear(in_features=256, out_features=128, bias=True)
            )
            (5): GELU(approximate='none')
            (6): Conv2d(128, 128, kernel_size=(3, 3), stride=(1, 1), padding=(1, 1), bias=False)
            (7): Normalization(
              num_channels=128=128 groups of size 1, conditioning_channels=256, homogeneous=True, learnable_weight=True, learnable_bias=False, center=True, normalize_by=stddev, preserve_scale=True, use_statistics=input
              (conditioning_embedding): Linear(in_features=256, out_features=128, bias=True)
            )
            (8): GELU(approximate='none')
          )
          (2): ConditionalSequential(
            (0): Conv2d(128, 256, kernel_size=(2, 2), stride=(2, 2), bias=False)
            (1): Normalization(
              num_channels=256=256 groups of size 1, conditioning_channels=256, homogeneous=True, learnable_weight=True, learnable_bias=False, center=True, normalize_by=stddev, preserve_scale=True, use_statistics=input
              (conditioning_embedding): Linear(in_features=256, out_features=256, bias=True)
            )
            (2): GELU(approximate='none')
            (3): Conv2d(256, 256, kernel_size=(3, 3), stride=(1, 1), padding=(1, 1), bias=False)
            (4): Normalization(
              num_channels=256=256 groups of size 1, conditioning_channels=256, homogeneous=True, learnable_weight=True, learnable_bias=False, center=True, normalize_by=stddev, preserve_scale=True, use_statistics=input
              (conditioning_embedding): Linear(in_features=256, out_features=256, bias=True)
            )
            (5): GELU(approximate='none')
            (6): Conv2d(256, 256, kernel_size=(3, 3), stride=(1, 1), padding=(1, 1), bias=False)
            (7): Normalization(
              num_channels=256=256 groups of size 1, conditioning_channels=256, homogeneous=True, learnable_weight=True, learnable_bias=False, center=True, normalize_by=stddev, preserve_scale=True, use_statistics=input
              (conditioning_embedding): Linear(in_features=256, out_features=256, bias=True)
            )
            (8): GELU(approximate='none')
          )
        )
        (middle_block): ConditionalSequential(
          (0): Conv2d(256, 512, kernel_size=(2, 2), stride=(2, 2), bias=False)
          (1): Normalization(
            num_channels=512=512 groups of size 1, conditioning_channels=256, homogeneous=True, learnable_weight=True, learnable_bias=False, center=True, normalize_by=stddev, preserve_scale=True, use_statistics=input
            (conditioning_embedding): Linear(in_features=256, out_features=512, bias=True)
          )
          (2): GELU(approximate='none')
          (3): Conv2d(512, 512, kernel_size=(3, 3), stride=(1, 1), padding=(1, 1), bias=False)
          (4): Normalization(
            num_channels=512=512 groups of size 1, conditioning_channels=256, homogeneous=True, learnable_weight=True, learnable_bias=False, center=True, normalize_by=stddev, preserve_scale=True, use_statistics=input
            (conditioning_embedding): Linear(in_features=256, out_features=512, bias=True)
          )
          (5): GELU(approximate='none')
          (6): ConvTranspose2d(512, 256, kernel_size=(2, 2), stride=(2, 2), bias=False)
          (7): Normalization(
            num_channels=256=256 groups of size 1, conditioning_channels=256, homogeneous=True, learnable_weight=True, learnable_bias=False, center=True, normalize_by=stddev, preserve_scale=True, use_statistics=input
            (conditioning_embedding): Linear(in_features=256, out_features=256, bias=True)
          )
          (8): GELU(approximate='none')
        )
        (decoder): ModuleList(
          (0): ConditionalSequential(
            (0): Conv2d(128, 64, kernel_size=(3, 3), stride=(1, 1), padding=(1, 1), bias=False)
            (1): Normalization(
              num_channels=64=64 groups of size 1, conditioning_channels=256, homogeneous=True, learnable_weight=True, learnable_bias=False, center=True, normalize_by=stddev, preserve_scale=True, use_statistics=input
              (conditioning_embedding): Linear(in_features=256, out_features=64, bias=True)
            )
            (2): GELU(approximate='none')
            (3): Conv2d(64, 64, kernel_size=(3, 3), stride=(1, 1), padding=(1, 1), bias=False)
            (4): Normalization(
              num_channels=64=64 groups of size 1, conditioning_channels=256, homogeneous=True, learnable_weight=True, learnable_bias=False, center=True, normalize_by=stddev, preserve_scale=True, use_statistics=input
              (conditioning_embedding): Linear(in_features=256, out_features=64, bias=True)
            )
            (5): GELU(approximate='none')
            (6): Conv2d(64, 1, kernel_size=(3, 3), stride=(1, 1), padding=(1, 1), bias=False)
          )
          (1): ConditionalSequential(
            (0): Conv2d(256, 128, kernel_size=(3, 3), stride=(1, 1), padding=(1, 1), bias=False)
            (1): Normalization(
              num_channels=128=128 groups of size 1, conditioning_channels=256, homogeneous=True, learnable_weight=True, learnable_bias=False, center=True, normalize_by=stddev, preserve_scale=True, use_statistics=input
              (conditioning_embedding): Linear(in_features=256, out_features=128, bias=True)
            )
            (2): GELU(approximate='none')
            (3): Conv2d(128, 128, kernel_size=(3, 3), stride=(1, 1), padding=(1, 1), bias=False)
            (4): Normalization(
              num_channels=128=128 groups of size 1, conditioning_channels=256, homogeneous=True, learnable_weight=True, learnable_bias=False, center=True, normalize_by=stddev, preserve_scale=True, use_statistics=input
              (conditioning_embedding): Linear(in_features=256, out_features=128, bias=True)
            )
            (5): GELU(approximate='none')
            (6): ConvTranspose2d(128, 64, kernel_size=(2, 2), stride=(2, 2), bias=False)
            (7): Normalization(
              num_channels=64=64 groups of size 1, conditioning_channels=256, homogeneous=True, learnable_weight=True, learnable_bias=False, center=True, normalize_by=stddev, preserve_scale=True, use_statistics=input
              (conditioning_embedding): Linear(in_features=256, out_features=64, bias=True)
            )
            (8): GELU(approximate='none')
          )
          (2): ConditionalSequential(
            (0): Conv2d(512, 256, kernel_size=(3, 3), stride=(1, 1), padding=(1, 1), bias=False)
            (1): Normalization(
              num_channels=256=256 groups of size 1, conditioning_channels=256, homogeneous=True, learnable_weight=True, learnable_bias=False, center=True, normalize_by=stddev, preserve_scale=True, use_statistics=input
              (conditioning_embedding): Linear(in_features=256, out_features=256, bias=True)
            )
            (2): GELU(approximate='none')
            (3): Conv2d(256, 256, kernel_size=(3, 3), stride=(1, 1), padding=(1, 1), bias=False)
            (4): Normalization(
              num_channels=256=256 groups of size 1, conditioning_channels=256, homogeneous=True, learnable_weight=True, learnable_bias=False, center=True, normalize_by=stddev, preserve_scale=True, use_statistics=input
              (conditioning_embedding): Linear(in_features=256, out_features=256, bias=True)
            )
            (5): GELU(approximate='none')
            (6): ConvTranspose2d(256, 128, kernel_size=(2, 2), stride=(2, 2), bias=False)
            (7): Normalization(
              num_channels=128=128 groups of size 1, conditioning_channels=256, homogeneous=True, learnable_weight=True, learnable_bias=False, center=True, normalize_by=stddev, preserve_scale=True, use_statistics=input
              (conditioning_embedding): Linear(in_features=256, out_features=128, bias=True)
            )
            (8): GELU(approximate='none')
          )
        )
      )
    )
  )
)
Model parameters:
- network.module.network.noise_var_embedding.time_embed.0.weight: torch.Size([256, 64]) => 16_384 parameters
- network.module.network.noise_var_embedding.time_embed.0.bias: torch.Size([256]) => 256 parameters
- network.module.network.noise_var_embedding.time_embed.2.weight: torch.Size([256, 256]) => 65_536 parameters
…
